…
n_steps:
    value: 1536
neg_reward_size:
    value: 1.5
net_arch:
    value:
        pi:
            - 512
            - 256
            - 128
        vf:
            - 512
            - 256
            - 128
normalize_advantage:
    value: "True"
num_envs:
    value: 6
num_timesteps:
    value: 0
observation_space:
    value: Box(0, 255, (3, 225, 400), uint8)
policy:
    value: |-
        ActorCriticCnnPolicy(
          (features_extractor): CustomExtractor(
            (preprocess): Normalize(mean=[0.485, 0.456, 0.406], std=[0.229, 0.224, 0.225])
            (cnn): Sequential(
              (0): Conv2d(3, 512, kernel_size=(8, 8), stride=(4, 4))
              (1): ReLU()
              (2): Conv2d(512, 256, kernel_size=(8, 8), stride=(4, 4))
              (3): ReLU()
              (4): Conv2d(256, 128, kernel_size=(4, 4), stride=(2, 2))
              (5): ReLU()
              (6): Flatten(start_dim=1, end_dim=-1)
            )
          )
          (pi_features_extractor): CustomExtractor(
            (preprocess): Normalize(mean=[0.485, 0.456, 0.406], std=[0.229, 0.224, 0.225])
            (cnn): Sequential(
              (0): Conv2d(3, 512, kernel_size=(8, 8), stride=(4, 4))
              (1): ReLU()
              (2): Conv2d(512, 256, kernel_size=(8, 8), stride=(4, 4))
              (3): ReLU()
              (4): Conv2d(256, 128, kernel_size=(4, 4), stride=(2, 2))
              (5): ReLU()
              (6): Flatten(start_dim=1, end_dim=-1)
            )
          )
          (vf_features_extractor): CustomExtractor(
            (preprocess): Normalize(mean=[0.485, 0.456, 0.406], std=[0.229, 0.224, 0.225])
            (cnn): Sequential(
              (0): Conv2d(3, 512, kernel_size=(8, 8), stride=(4, 4))
              (1): ReLU()
              (2): Conv2d(512, 256, kernel_size=(8, 8), stride=(4, 4))
              (3): ReLU()
              (4): Conv2d(256, 128, kernel_size=(4, 4), stride=(2, 2))
              (5): ReLU()
              (6): Flatten(start_dim=1, end_dim=-1)
            )
          )
          (mlp_extractor): MlpExtractor(
            (policy_net): Sequential(
              (0): Linear(in_features=6400, out_features=512, bias=True)
              (1): Tanh()
              (2): Linear(in_features=512, out_features=256, bias=True)
              (3): Tanh()
              (4): Linear(in_features=256, out_features=128, bias=True)
              (5): Tanh()
            )
            (value_net): Sequential(
              (0): Linear(in_features=6400, out_features=512, bias=True)
              (1): Tanh()
              (2): Linear(in_features=512, out_features=256, bias=True)
              (3): Tanh()
              (4): Linear(in_features=256, out_features=128, bias=True)
              (5): Tanh()
            )
          )
          (action_net): Linear(in_features=128, out_features=2, bias=True)
          (value_net): Linear(in_features=128, out_features=1, bias=True)
        )
policy_class:
    value: <class 'stable_baselines3.common.policies.ActorCriticCnnPolicy'>
policy_kwargs:
    value: '{''optimizer_class'': <class ''torch.optim.adam.Adam''>, ''features_extractor_class'': <class ''utils.vanilla_extractor.CustomExtractor''>, ''features_extractor_kwargs'': {''features_dim'': 256}, ''net_arch'': {''pi'': [512, 256, 128], ''vf'': [512, 256, 128]}}'
…
