…
    value: 256
neg_reward_size:
    value: 1.5
net_arch:
    value:
        pi:
            - 256
            - 256
            - 128
        vf:
            - 256
            - 256
            - 128
norm_obs:
    value: true
norm_reward:
    value: true
normalize_advantage:
    value: "True"
normalize_images:
    value: true
num_envs:
    value: 6
num_timesteps:
    value: 0
observation_space:
    value: Box(-10.0, 10.0, (3, 225, 400), float32)
policy:
    value: |-
        RecurrentActorCriticCnnPolicy(
          (features_extractor): CustomExtractor(
            (cnn): Sequential(
              (0): Conv2d(3, 32, kernel_size=(8, 8), stride=(4, 4))
              (1): ReLU(inplace=True)
              (2): Conv2d(32, 64, kernel_size=(4, 4), stride=(2, 2))
              (3): ReLU(inplace=True)
              (4): Conv2d(64, 64, kernel_size=(3, 3), stride=(1, 1))
              (5): ReLU(inplace=True)
              (6): Flatten(start_dim=1, end_dim=-1)
            )
          )
          (pi_features_extractor): CustomExtractor(
            (cnn): Sequential(
              (0): Conv2d(3, 32, kernel_size=(8, 8), stride=(4, 4))
              (1): ReLU(inplace=True)
              (2): Conv2d(32, 64, kernel_size=(4, 4), stride=(2, 2))
              (3): ReLU(inplace=True)
              (4): Conv2d(64, 64, kernel_size=(3, 3), stride=(1, 1))
              (5): ReLU(inplace=True)
              (6): Flatten(start_dim=1, end_dim=-1)
            )
          )
          (vf_features_extractor): CustomExtractor(
            (cnn): Sequential(
              (0): Conv2d(3, 32, kernel_size=(8, 8), stride=(4, 4))
              (1): ReLU(inplace=True)
              (2): Conv2d(32, 64, kernel_size=(4, 4), stride=(2, 2))
              (3): ReLU(inplace=True)
              (4): Conv2d(64, 64, kernel_size=(3, 3), stride=(1, 1))
              (5): ReLU(inplace=True)
              (6): Flatten(start_dim=1, end_dim=-1)
            )
          )
          (mlp_extractor): MlpExtractor(
            (policy_net): Sequential(
              (0): Linear(in_features=256, out_features=256, bias=True)
              (1): Tanh()
              (2): Linear(in_features=256, out_features=256, bias=True)
              (3): Tanh()
              (4): Linear(in_features=256, out_features=128, bias=True)
              (5): Tanh()
            )
            (value_net): Sequential(
              (0): Linear(in_features=256, out_features=256, bias=True)
              (1): Tanh()
              (2): Linear(in_features=256, out_features=256, bias=True)
              (3): Tanh()
              (4): Linear(in_features=256, out_features=128, bias=True)
              (5): Tanh()
            )
          )
          (action_net): Linear(in_features=128, out_features=2, bias=True)
          (value_net): Linear(in_features=128, out_features=1, bias=True)
          (lstm_actor): LSTM(70656, 256)
          (lstm_critic): LSTM(70656, 256)
        )
policy_class:
    value: <class 'sb3_contrib.common.recurrent.policies.RecurrentActorCriticCnnPolicy'>
policy_kwargs:
    value: '{''optimizer_class'': <class ''torch.optim.adam.Adam''>, ''features_extractor_class'': <class ''utils.vanilla_extractor2.CustomExtractor''>, ''net_arch'': {''pi'': [256, 256, 128], ''vf'': [256, 256, 128]}, ''lstm_hidden_size'': 256, ''n_lstm_layers'': 1, ''shared_lstm'': False, ''enable_critic_lstm'': True, ''normalize_images'': True}'
…
