…
          41
        ],
        "3": [
          3,
          13,
          16,
          22,
          35
        ],
        "4": "3.10.12",
        "5": "0.21.0",
        "12": "0.21.0",
        "13": "linux-x86_64"
      },
      "code_path": "code/rl_task/RecurrentPPO_trainer.py",
      "cli_version": "0.21.0",
      "python_version": "3.10.12"
    }
  },
  "device": {
    "value": "cuda:1"
  },
  "n_envs": {
    "value": 10
  },
  "policy": {
    "value": "RecurrentActorCriticCnnPolicy(\n  (features_extractor): VanillaExtractor(\n    (backbone): Sequential(\n      (0): Sequential(\n        (0): Conv2d(3, 32, kernel_size=(5, 5), stride=(2, 2), padding=(2, 2))\n        (1): GroupNorm(32, 32, eps=1e-05, affine=True)\n        (2): SiLU()\n      )\n      (1): Sequential(\n        (0): Conv2d(32, 64, kernel_size=(3, 3), stride=(2, 2), padding=(1, 1))\n        (1): GroupNorm(32, 64, eps=1e-05, affine=True)\n        (2): SiLU()\n      )\n      (2): Sequential(\n        (0): Conv2d(64, 128, kernel_size=(3, 3), stride=(2, 2), padding=(1, 1))\n        (1): GroupNorm(32, 128, eps=1e-05, affine=True)\n        (2): SiLU()\n      )\n      (3): Sequential(\n        (0): Conv2d(128, 256, kernel_size=(3, 3), stride=(2, 2), padding=(1, 1))\n        (1): GroupNorm(32, 256, eps=1e-05, affine=True)\n        (2): SiLU()\n      )\n    )\n    (flatten): Flatten(start_dim=1, end_dim=-1)\n    (mlp): Sequential(\n      (0): Linear(in_features=96000, out_features=1024, bias=True)\n      (1): SiLU()\n      (2): Linear(in_features=1024, out_features=1024, bias=True)\n      (3): SiLU()\n      (4): Linear(in_features=1024, out_features=1024, bias=True)\n    )\n  )\n  (pi_features_extractor): VanillaExtractor(\n    (backbone): Sequential(\n      (0): Sequential(\n        (0): Conv2d(3, 32, kernel_size=(5, 5), stride=(2, 2), padding=(2, 2))\n        (1): GroupNorm(32, 32, eps=1e-05, affine=True)\n        (2): SiLU()\n      )\n      (1): Sequential(\n        (0): Conv2d(32, 64, kernel_size=(3, 3), stride=(2, 2), padding=(1, 1))\n        (1): GroupNorm(32, 64, eps=1e-05, affine=True)\n        (2): SiLU()\n      )\n      (2): Sequential(\n        (0): Conv2d(64, 128, kernel_size=(3, 3), stride=(2, 2), padding=(1, 1))\n        (1): GroupNorm(32, 128, eps=1e-05, affine=True)\n        (2): SiLU()\n      )\n      (3): Sequential(\n        (0): Conv2d(128, 256, kernel_size=(3, 3), stride=(2, 2), padding=(1, 1))\n        (1): GroupNorm(32, 256, eps=1e-05, affine=True)\n        (2): SiLU()\n      )\n    )\n    (flatten): Flatten(start_dim=1, end_dim=-1)\n    (mlp): Sequential(\n      (0): Linear(in_features=96000, out_features=1024, bias=True)\n      (1): SiLU()\n      (2): Linear(in_features=1024, out_features=1024, bias=True)\n      (3): SiLU()\n      (4): Linear(in_features=1024, out_features=1024, bias=True)\n    )\n  )\n  (vf_features_extractor): VanillaExtractor(\n    (backbone): Sequential(\n      (0): Sequential(\n        (0): Conv2d(3, 32, kernel_size=(5, 5), stride=(2, 2), padding=(2, 2))\n        (1): GroupNorm(32, 32, eps=1e-05, affine=True)\n        (2): SiLU()\n      )\n      (1): Sequential(\n        (0): Conv2d(32, 64, kernel_size=(3, 3), stride=(2, 2), padding=(1, 1))\n        (1): GroupNorm(32, 64, eps=1e-05, affine=True)\n        (2): SiLU()\n      )\n      (2): Sequential(\n        (0): Conv2d(64, 128, kernel_size=(3, 3), stride=(2, 2), padding=(1, 1))\n        (1): GroupNorm(32, 128, eps=1e-05, affine=True)\n        (2): SiLU()\n      )\n      (3): Sequential(\n        (0): Conv2d(128, 256, kernel_size=(3, 3), stride=(2, 2), padding=(1, 1))\n        (1): GroupNorm(32, 256, eps=1e-05, affine=True)\n        (2): SiLU()\n      )\n    )\n    (flatten): Flatten(start_dim=1, end_dim=-1)\n    (mlp): Sequential(\n      (0): Linear(in_features=96000, out_features=1024, bias=True)\n      (1): SiLU()\n      (2): Linear(in_features=1024, out_features=1024, bias=True)\n      (3): SiLU()\n      (4): Linear(in_features=1024, out_features=1024, bias=True)\n    )\n  )\n  (mlp_extractor): MlpExtractor(\n    (policy_net): Sequential(\n      (0): Linear(in_features=200, out_features=512, bias=True)\n      (1): SiLU()\n      (2): Linear(in_features=512, out_features=384, bias=True)\n      (3): SiLU()\n      (4): Linear(in_features=384, out_features=256, bias=True)\n      (5): SiLU()\n    )\n    (value_net): Sequential(\n      (0): Linear(in_features=200, out_features=512, bias=True)\n      (1): SiLU()\n      (2): Linear(in_features=512, out_features=384, bias=True)\n      (3): SiLU()\n      (4): Linear(in_features=384, out_features=256, bias=True)\n      (5): SiLU()\n    )\n  )\n  (action_net): Linear(in_features=256, out_features=2, bias=True)\n  (value_net): Linear(in_features=256, out_features=1, bias=True)\n  (lstm_actor): LSTM(1024, 200)\n  (lstm_critic): LSTM(1024, 200)\n)"
  },
  "_logger": {
    "value": "<stable_baselines3.common.logger.Logger object at 0x7af74cfbed40>"
  },
  "n_steps": {
    "value": 256
  },
  "use_sde": {
    "value": false
  },
  "verbose": {
    "value": 1
  },
  "vf_coef": {
    "value": 0.5
  },
  "ent_coef": {
    "value": 0.005
…
