…
    value:
        pi:
            - 400
            - 300
            - 200
        vf:
            - 400
            - 300
            - 200
normalize_advantage:
    value: "True"
normalize_images:
    value: true
num_envs:
    value: 8
num_timesteps:
    value: 0
observation_space:
    value: Box(0, 255, (3, 225, 400), uint8)
optimizer_class:
    value: torch.optim.adam.Adam
ortho_init:
    value: true
policy:
    value: |-
        RecurrentActorCriticCnnPolicy(
          (features_extractor): DepthwiseExtractor(
            (backbone): Sequential(
              (0): Sequential(
                (0): Conv2d(3, 3, kernel_size=(3, 3), stride=(2, 2), padding=(1, 1), groups=3, bias=False)
                (1): BatchNorm2d(3, eps=1e-05, momentum=0.1, affine=True, track_running_stats=True)
                (2): SiLU()
                (3): Conv2d(3, 24, kernel_size=(1, 1), stride=(1, 1), bias=False)
                (4): BatchNorm2d(24, eps=1e-05, momentum=0.1, affine=True, track_running_stats=True)
                (5): SiLU()
              )
              (1): Sequential(
                (0): Conv2d(24, 24, kernel_size=(3, 3), stride=(2, 2), padding=(1, 1), groups=24, bias=False)
                (1): BatchNorm2d(24, eps=1e-05, momentum=0.1, affine=True, track_running_stats=True)
                (2): SiLU()
                (3): Conv2d(24, 48, kernel_size=(1, 1), stride=(1, 1), bias=False)
                (4): BatchNorm2d(48, eps=1e-05, momentum=0.1, affine=True, track_running_stats=True)
                (5): SiLU()
              )
              (2): Sequential(
                (0): Conv2d(48, 48, kernel_size=(3, 3), stride=(2, 2), padding=(1, 1), groups=48, bias=False)
                (1): BatchNorm2d(48, eps=1e-05, momentum=0.1, affine=True, track_running_stats=True)
                (2): SiLU()
                (3): Conv2d(48, 96, kernel_size=(1, 1), stride=(1, 1), bias=False)
                (4): BatchNorm2d(96, eps=1e-05, momentum=0.1, affine=True, track_running_stats=True)
                (5): SiLU()
              )
              (3): Sequential(
                (0): Conv2d(96, 96, kernel_size=(3, 3), stride=(1, 1), padding=(1, 1), groups=96, bias=False)
                (1): BatchNorm2d(96, eps=1e-05, momentum=0.1, affine=True, track_running_stats=True)
                (2): SiLU()
                (3): Conv2d(96, 96, kernel_size=(1, 1), stride=(1, 1), bias=False)
                (4): BatchNorm2d(96, eps=1e-05, momentum=0.1, affine=True, track_running_stats=True)
                (5): SiLU()
              )
            )
            (head1x1): Sequential(
              (0): Conv2d(96, 32, kernel_size=(1, 1), stride=(1, 1), bias=False)
              (1): BatchNorm2d(32, eps=1e-05, momentum=0.1, affine=True, track_running_stats=True)
              (2): SiLU()
            )
            (pool_small): AdaptiveAvgPool2d(output_size=(12, 8))
            (mlp): Sequential(
              (0): Linear(in_features=3072, out_features=1024, bias=True)
              (1): SiLU()
              (2): Linear(in_features=1024, out_features=512, bias=True)
              (3): SiLU()
              (4): Linear(in_features=512, out_features=400, bias=True)
            )
          )
          (pi_features_extractor): DepthwiseExtractor(
            (backbone): Sequential(
              (0): Sequential(
                (0): Conv2d(3, 3, kernel_size=(3, 3), stride=(2, 2), padding=(1, 1), groups=3, bias=False)
                (1): BatchNorm2d(3, eps=1e-05, momentum=0.1, affine=True, track_running_stats=True)
                (2): SiLU()
                (3): Conv2d(3, 24, kernel_size=(1, 1), stride=(1, 1), bias=False)
                (4): BatchNorm2d(24, eps=1e-05, momentum=0.1, affine=True, track_running_stats=True)
                (5): SiLU()
              )
              (1): Sequential(
                (0): Conv2d(24, 24, kernel_size=(3, 3), stride=(2, 2), padding=(1, 1), groups=24, bias=False)
                (1): BatchNorm2d(24, eps=1e-05, momentum=0.1, affine=True, track_running_stats=True)
                (2): SiLU()
                (3): Conv2d(24, 48, kernel_size=(1, 1), stride=(1, 1), bias=False)
                (4): BatchNorm2d(48, eps=1e-05, momentum=0.1, affine=True, track_running_stats=True)
                (5): SiLU()
              )
              (2): Sequential(
                (0): Conv2d(48, 48, kernel_size=(3, 3), stride=(2, 2), padding=(1, 1), groups=48, bias=False)
                (1): BatchNorm2d(48, eps=1e-05, momentum=0.1, affine=True, track_running_stats=True)
                (2): SiLU()
                (3): Conv2d(48, 96, kernel_size=(1, 1), stride=(1, 1), bias=False)
                (4): BatchNorm2d(96, eps=1e-05, momentum=0.1, affine=True, track_running_stats=True)
                (5): SiLU()
              )
              (3): Sequential(
                (0): Conv2d(96, 96, kernel_size=(3, 3), stride=(1, 1), padding=(1, 1), groups=96, bias=False)
                (1): BatchNorm2d(96, eps=1e-05, momentum=0.1, affine=True, track_running_stats=True)
                (2): SiLU()
                (3): Conv2d(96, 96, kernel_size=(1, 1), stride=(1, 1), bias=False)
                (4): BatchNorm2d(96, eps=1e-05, momentum=0.1, affine=True, track_running_stats=True)
                (5): SiLU()
              )
            )
            (head1x1): Sequential(
              (0): Conv2d(96, 32, kernel_size=(1, 1), stride=(1, 1), bias=False)
              (1): BatchNorm2d(32, eps=1e-05, momentum=0.1, affine=True, track_running_stats=True)
              (2): SiLU()
            )
            (pool_small): AdaptiveAvgPool2d(output_size=(12, 8))
            (mlp): Sequential(
              (0): Linear(in_features=3072, out_features=1024, bias=True)
              (1): SiLU()
              (2): Linear(in_features=1024, out_features=512, bias=True)
              (3): SiLU()
              (4): Linear(in_features=512, out_features=400, bias=True)
            )
          )
          (vf_features_extractor): DepthwiseExtractor(
            (backbone): Sequential(
              (0): Sequential(
                (0): Conv2d(3, 3, kernel_size=(3, 3), stride=(2, 2), padding=(1, 1), groups=3, bias=False)
                (1): BatchNorm2d(3, eps=1e-05, momentum=0.1, affine=True, track_running_stats=True)
                (2): SiLU()
                (3): Conv2d(3, 24, kernel_size=(1, 1), stride=(1, 1), bias=False)
                (4): BatchNorm2d(24, eps=1e-05, momentum=0.1, affine=True, track_running_stats=True)
                (5): SiLU()
              )
              (1): Sequential(
                (0): Conv2d(24, 24, kernel_size=(3, 3), stride=(2, 2), padding=(1, 1), groups=24, bias=False)
                (1): BatchNorm2d(24, eps=1e-05, momentum=0.1, affine=True, track_running_stats=True)
                (2): SiLU()
                (3): Conv2d(24, 48, kernel_size=(1, 1), stride=(1, 1), bias=False)
                (4): BatchNorm2d(48, eps=1e-05, momentum=0.1, affine=True, track_running_stats=True)
                (5): SiLU()
              )
              (2): Sequential(
                (0): Conv2d(48, 48, kernel_size=(3, 3), stride=(2, 2), padding=(1, 1), groups=48, bias=False)
                (1): BatchNorm2d(48, eps=1e-05, momentum=0.1, affine=True, track_running_stats=True)
                (2): SiLU()
                (3): Conv2d(48, 96, kernel_size=(1, 1), stride=(1, 1), bias=False)
                (4): BatchNorm2d(96, eps=1e-05, momentum=0.1, affine=True, track_running_stats=True)
                (5): SiLU()
              )
              (3): Sequential(
                (0): Conv2d(96, 96, kernel_size=(3, 3), stride=(1, 1), padding=(1, 1), groups=96, bias=False)
                (1): BatchNorm2d(96, eps=1e-05, momentum=0.1, affine=True, track_running_stats=True)
                (2): SiLU()
                (3): Conv2d(96, 96, kernel_size=(1, 1), stride=(1, 1), bias=False)
                (4): BatchNorm2d(96, eps=1e-05, momentum=0.1, affine=True, track_running_stats=True)
                (5): SiLU()
              )
            )
            (head1x1): Sequential(
              (0): Conv2d(96, 32, kernel_size=(1, 1), stride=(1, 1), bias=False)
              (1): BatchNorm2d(32, eps=1e-05, momentum=0.1, affine=True, track_running_stats=True)
              (2): SiLU()
            )
            (pool_small): AdaptiveAvgPool2d(output_size=(12, 8))
            (mlp): Sequential(
              (0): Linear(in_features=3072, out_features=1024, bias=True)
              (1): SiLU()
              (2): Linear(in_features=1024, out_features=512, bias=True)
              (3): SiLU()
              (4): Linear(in_features=512, out_features=400, bias=True)
            )
          )
          (mlp_extractor): MlpExtractor(
            (policy_net): Sequential(
              (0): Linear(in_features=200, out_features=400, bias=True)
              (1): SiLU()
              (2): Linear(in_features=400, out_features=300, bias=True)
              (3): SiLU()
              (4): Linear(in_features=300, out_features=200, bias=True)
              (5): SiLU()
            )
            (value_net): Sequential(
              (0): Linear(in_features=200, out_features=400, bias=True)
              (1): SiLU()
              (2): Linear(in_features=400, out_features=300, bias=True)
              (3): SiLU()
              (4): Linear(in_features=300, out_features=200, bias=True)
              (5): SiLU()
            )
          )
          (action_net): Linear(in_features=200, out_features=2, bias=True)
          (value_net): Linear(in_features=200, out_features=1, bias=True)
          (lstm_actor): LSTM(400, 200)
          (lstm_critic): LSTM(400, 200)
        )
policy_class:
    value: <class 'sb3_contrib.common.recurrent.policies.RecurrentActorCriticCnnPolicy'>
policy_kwargs:
    value: '{''optimizer_class'': <class ''torch.optim.adam.Adam''>, ''features_extractor_class'': <class ''rl_task.task.extractors.custom_extractors
…
