…
    value: 1536
neg_reward_size:
    value: 1.5
net_arch:
    value:
        pi:
            - 512
            - 256
            - 128
            - 512
            - 256
            - 128
        vf:
            - 512
            - 256
            - 128
            - 512
            - 256
            - 128
normalize_advantage:
    value: "True"
num_envs:
    value: 6
num_timesteps:
    value: 0
observation_space:
    value: Box(0, 255, (3, 225, 400), uint8)
policy:
    value: |-
        ActorCriticCnnPolicy(
          (features_extractor): NatureCNN(
            (cnn): Sequential(
              (0): Conv2d(3, 32, kernel_size=(8, 8), stride=(4, 4))
              (1): ReLU()
              (2): Conv2d(32, 64, kernel_size=(4, 4), stride=(2, 2))
              (3): ReLU()
              (4): Conv2d(64, 64, kernel_size=(3, 3), stride=(1, 1))
              (5): ReLU()
              (6): Flatten(start_dim=1, end_dim=-1)
            )
            (linear): Sequential(
              (0): Linear(in_features=70656, out_features=512, bias=True)
              (1): ReLU()
            )
          )
          (pi_features_extractor): NatureCNN(
            (cnn): Sequential(
              (0): Conv2d(3, 32, kernel_size=(8, 8), stride=(4, 4))
              (1): ReLU()
              (2): Conv2d(32, 64, kernel_size=(4, 4), stride=(2, 2))
              (3): ReLU()
              (4): Conv2d(64, 64, kernel_size=(3, 3), stride=(1, 1))
              (5): ReLU()
              (6): Flatten(start_dim=1, end_dim=-1)
            )
            (linear): Sequential(
              (0): Linear(in_features=70656, out_features=512, bias=True)
              (1): ReLU()
            )
          )
          (vf_features_extractor): NatureCNN(
            (cnn): Sequential(
              (0): Conv2d(3, 32, kernel_size=(8, 8), stride=(4, 4))
              (1): ReLU()
              (2): Conv2d(32, 64, kernel_size=(4, 4), stride=(2, 2))
              (3): ReLU()
              (4): Conv2d(64, 64, kernel_size=(3, 3), stride=(1, 1))
              (5): ReLU()
              (6): Flatten(start_dim=1, end_dim=-1)
            )
            (linear): Sequential(
              (0): Linear(in_features=70656, out_features=512, bias=True)
              (1): ReLU()
            )
          )
          (mlp_extractor): MlpExtractor(
            (policy_net): Sequential(
              (0): Linear(in_features=512, out_features=512, bias=True)
              (1): Tanh()
              (2): Linear(in_features=512, out_features=256, bias=True)
              (3): Tanh()
              (4): Linear(in_features=256, out_features=128, bias=True)
              (5): Tanh()
              (6): Linear(in_features=128, out_features=512, bias=True)
              (7): Tanh()
              (8): Linear(in_features=512, out_features=256, bias=True)
              (9): Tanh()
              (10): Linear(in_features=256, out_features=128, bias=True)
              (11): Tanh()
            )
            (value_net): Sequential(
              (0): Linear(in_features=512, out_features=512, bias=True)
              (1): Tanh()
              (2): Linear(in_features=512, out_features=256, bias=True)
              (3): Tanh()
              (4): Linear(in_features=256, out_features=128, bias=True)
              (5): Tanh()
              (6): Linear(in_features=128, out_features=512, bias=True)
              (7): Tanh()
              (8): Linear(in_features=512, out_features=256, bias=True)
              (9): Tanh()
              (10): Linear(in_features=256, out_features=128, bias=True)
              (11): Tanh()
            )
          )
          (action_net): Linear(in_features=128, out_features=2, bias=True)
          (value_net): Linear(in_features=128, out_features=1, bias=True)
        )
policy_class:
    value: <class 'stable_baselines3.common.policies.ActorCriticCnnPolicy'>
policy_kwargs:
    value: '{''optimizer_class'': <class ''torch.optim.adam.Adam''>, ''net_arch'': {''pi'': [512, 256, 128, 512, 256, 128], ''vf'': [512, 256, 128, 512, 256, 128]}}'
policy_type:
    value: CnnPolicy
pos_reward_size:
    value: 1.5
rollout_buffer:
…
