…
    value: 4
n_steps:
    value: 1536
neg_reward_size:
    value: 2
net_arch:
    value:
        pi:
            - 256
            - 256
            - 256
        vf:
            - 512
            - 512
            - 512
normalize_advantage:
    value: "True"
num_envs:
    value: 6
num_timesteps:
    value: 0
observation_space:
    value: Box(0, 255, (3, 225, 400), uint8)
policy:
    value: |-
        ActorCriticCnnPolicy(
          (features_extractor): Extractor(
            (body): MobileNetV3(
              (features): Module(
                (0): Conv2dNormActivation(
                  (0): Conv2d(3, 16, kernel_size=(3, 3), stride=(2, 2), padding=(1, 1), bias=False)
                  (1): BatchNorm2d(16, eps=0.001, momentum=0.01, affine=True, track_running_stats=True)
                  (2): Hardswish()
                )
                (1): Module(
                  (block): Module(
                    (0): Conv2dNormActivation(
                      (0): Conv2d(16, 16, kernel_size=(3, 3), stride=(2, 2), padding=(1, 1), groups=16, bias=False)
                      (1): BatchNorm2d(16, eps=0.001, momentum=0.01, affine=True, track_running_stats=True)
                      (2): ReLU(inplace=True)
                    )
                    (1): SqueezeExcitation(
                      (avgpool): AdaptiveAvgPool2d(output_size=1)
                      (fc1): Conv2d(16, 8, kernel_size=(1, 1), stride=(1, 1))
                      (fc2): Conv2d(8, 16, kernel_size=(1, 1), stride=(1, 1))
                      (activation): ReLU()
                      (scale_activation): Hardsigmoid()
                    )
                    (2): Conv2dNormActivation(
                      (0): Conv2d(16, 16, kernel_size=(1, 1), stride=(1, 1), bias=False)
                      (1): BatchNorm2d(16, eps=0.001, momentum=0.01, affine=True, track_running_stats=True)
                    )
                  )
                )
                (2): Module(
                  (block): Module(
                    (0): Conv2dNormActivation(
                      (0): Conv2d(16, 72, kernel_size=(1, 1), stride=(1, 1), bias=False)
                      (1): BatchNorm2d(72, eps=0.001, momentum=0.01, affine=True, track_running_stats=True)
                      (2): ReLU(inplace=True)
                    )
                    (1): Conv2dNormActivation(
                      (0): Conv2d(72, 72, kernel_size=(3, 3), stride=(2, 2), padding=(1, 1), groups=72, bias=False)
                      (1): BatchNorm2d(72, eps=0.001, momentum=0.01, affine=True, track_running_stats=True)
                      (2): ReLU(inplace=True)
                    )
                    (2): Conv2dNormActivation(
                      (0): Conv2d(72, 24, kernel_size=(1, 1), stride=(1, 1), bias=False)
                      (1): BatchNorm2d(24, eps=0.001, momentum=0.01, affine=True, track_running_stats=True)
                    )
                  )
                )
                (3): Module(
                  (block): Module(
                    (0): Conv2dNormActivation(
                      (0): Conv2d(24, 88, kernel_size=(1, 1), stride=(1, 1), bias=False)
                      (1): BatchNorm2d(88, eps=0.001, momentum=0.01, affine=True, track_running_stats=True)
                      (2): ReLU(inplace=True)
                    )
                    (1): Conv2dNormActivation(
                      (0): Conv2d(88, 88, kernel_size=(3, 3), stride=(1, 1), padding=(1, 1), groups=88, bias=False)
                      (1): BatchNorm2d(88, eps=0.001, momentum=0.01, affine=True, track_running_stats=True)
                      (2): ReLU(inplace=True)
                    )
                    (2): Conv2dNormActivation(
                      (0): Conv2d(88, 24, kernel_size=(1, 1), stride=(1, 1), bias=False)
                      (1): BatchNorm2d(24, eps=0.001, momentum=0.01, affine=True, track_running_stats=True)
                    )
                  )
                )
                (4): Module(
                  (block): Module(
                    (0): Conv2dNormActivation(
                      (0): Conv2d(24, 96, kernel_size=(1, 1), stride=(1, 1), bias=False)
                      (1): BatchNorm2d(96, eps=0.001, momentum=0.01, affine=True, track_running_stats=True)
                      (2): Hardswish()
                    )
                    (1): Conv2dNormActivation(
                      (0): Conv2d(96, 96, kernel_size=(5, 5), stride=(2, 2), padding=(2, 2), groups=96, bias=False)
                      (1): BatchNorm2d(96, eps=0.001, momentum=0.01, affine=True, track_running_stats=True)
                      (2): Hardswish()
                    )
                    (2): SqueezeExcitation(
                      (avgpool): AdaptiveAvgPool2d(output_size=1)
                      (fc1): Conv2d(96, 24, kernel_size=(1, 1), stride=(1, 1))
                      (fc2): Conv2d(24, 96, kernel_size=(1, 1), stride=(1, 1))
                      (activation): ReLU()
                      (scale_activation): Hardsigmoid()
                    )
                    (3): Conv2dNormActivation(
                      (0): Conv2d(96, 40, kernel_size=(1, 1), stride=(1, 1), bias=False)
                      (1): BatchNorm2d(40, eps=0.001, momentum=0.01, affine=True, track_running_stats=True)
                    )
                  )
                )
                (5): Module(
                  (block): Module(
                    (0): Conv2dNormActivation(
                      (0): Conv2d(40, 240, kernel_size=(1, 1), stride=(1, 1), bias=False)
                      (1): BatchNorm2d(240, eps=0.001, momentum=0.01, affine=True, track_running_stats=True)
                      (2): Hardswish()
                    )
                    (1): Conv2dNormActivation(
                      (0): Conv2d(240, 240, kernel_size=(5, 5), stride=(1, 1), padding=(2, 2), groups=240, bias=False)
                      (1): BatchNorm2d(240, eps=0.001, momentum=0.01, affine=True, track_running_stats=True)
                      (2): Hardswish()
                    )
                    (2): SqueezeExcitation(
                      (avgpool): AdaptiveAvgPool2d(output_size=1)
                      (fc1): Conv2d(240, 64, kernel_size=(1, 1), stride=(1, 1))
                      (fc2): Conv2d(64, 240, kernel_size=(1, 1), stride=(1, 1))
                      (activation): ReLU()
                      (scale_activation): Hardsigmoid()
                    )
                    (3): Conv2dNormActivation(
                      (0): Conv2d(240, 40, kernel_size=(1, 1), stride=(1, 1), bias=False)
                      (1): BatchNorm2d(40, eps=0.001, momentum=0.01, affine=True, track_running_stats=True)
                    )
                  )
                )
                (6): Module(
                  (block): Module(
                    (0): Conv2dNormActivation(
                      (0): Conv2d(40, 240, kernel_size=(1, 1), stride=(1, 1), bias=False)
                      (1): BatchNorm2d(240, eps=0.001, momentum=0.01, affine=True, track_running_stats=True)
                      (2): Hardswish()
                    )
                    (1): Conv2dNormActivation(
                      (0): Conv2d(240, 240, kernel_size=(5, 5), stride=(1, 1), padding=(2, 2), groups=240, bias=False)
                      (1): BatchNorm2d(240, eps=0.001, momentum=0.01, affine=True, track_running_stats=True)
                      (2): Hardswish()
                    )
                    (2): SqueezeExcitation(
                      (avgpool): AdaptiveAvgPool2d(output_size=1)
                      (fc1): Conv2d(240, 64, kernel_size=(1, 1), stride=(1, 1))
                      (fc2): Conv2d(64, 240, kernel_size=(1, 1), stride=(1, 1))
                      (activation): ReLU()
                      (scale_activation): Hardsigmoid()
                    )
                    (3): Conv2dNormActivation(
                      (0): Conv2d(240, 40, kernel_size=(1, 1), stride=(1, 1), bias=False)
                      (1): BatchNorm2d(40, eps=0.001, momentum=0.01, affine=True, track_running_stats=True)
                    )
                  )
                )
                (7): Module(
                  (block): Module(
                    (0): Conv2dNormActivation(
                      (0): Conv2d(40, 120, kernel_size=(1, 1), stride=(1, 1), bias=False)
                      (1): BatchNorm2d(120, eps=0.001, momentum=0.01, affine=True, track_running_stats=True)
                      (2): Hardswish()
                    )
                    (1): Conv2dNormActivation(
                      (0): Conv2d(120, 120, kernel_size=(5, 5), stride=(1, 1), padding=(2, 2), groups=120, bias=False)
                      (1): BatchNorm2d(120, eps=0.001, momentum=0.01, affine=True, track_running_stats=True)
                      (2): Hardswish()
                    )
                    (2): SqueezeExcitation(
                      (avgpool): AdaptiveAvgPool2d(output_size=1)
                      (fc1): Conv2d(120, 32, kernel_size=(1, 1), stride=(1, 1))
                      (fc2): Conv2d(32, 120, kernel_size=(1, 1), stride=(1, 1))
                      (activation): ReLU()
                      (scale_activation): Hardsigmoid()
                    )
                    (3): Conv2dNormActivation(
                      (0): Conv2d(120, 48, kernel_size=(1, 1), stride=(1, 1), bias=False)
                      (1): BatchNorm2d(48, eps=0.001, momentum=0.01, affine=True, track_running_stats=True)
                    )
                  )
                )
                (8): Module(
                  (block): Module(
                    (0): Conv2dNormActivation(
                      (0): Conv2d(48, 144, kernel_size=(1, 1), stride=(1, 1), bias=False)
                      (1): BatchNorm2d(144, eps=0.001, momentum=0.01, affine=True, track_running_stats=True)
                      (2): Hardswish()
                    )
                    (1): Conv2dNormActivation(
                      (0): Conv2d(144, 144, kernel_size=(5, 5), stride=(1, 1), padding=(2, 2), groups=144, bias=False)
                      (1): BatchNorm2d(144, eps=0.001, momentum=0.01, affine=True, track_running_stats=True)
                      (2): Hardswish()
                    )
                    (2): SqueezeExcitation(
                      (avgpool): AdaptiveAvgPool2d(output_size=1)
                      (fc1): Conv2d(144, 40, kernel_size=(1, 1), stride=(1, 1))
                      (fc2): Conv2d(40, 144, kernel_size=(1, 1), stride=(1, 1))
                      (activation): ReLU()
                      (scale_activation): Hardsigmoid()
                    )
                    (3): Conv2dNormActivation(
                      (0): Conv2d(144, 48, kernel_size=(1, 1), stride=(1, 1), bias=False)
                      (1): BatchNorm2d(48, eps=0.001, momentum=0.01, affine=True, track_running_stats=True)
                    )
                  )
                )
                (9): Module(
                  (block): Module(
                    (0): Conv2dNormActivation(
                      (0): Conv2d(48, 288, kernel_size=(1, 1), stride=(1, 1), bias=False)
                      (1): BatchNorm2d(288, eps=0.001, momentum=0.01, affine=True, track_running_stats=True)
                      (2): Hardswish()
                    )
                    (1): Conv2dNormActivation(
                      (0): Conv2d(288, 288, kernel_size=(5, 5), stride=(2, 2), padding=(2, 2), groups=288, bias=False)
                      (1): BatchNorm2d(288, eps=0.001, momentum=0.01, affine=True, track_running_stats=True)
                      (2): Hardswish()
                    )
                    (2): SqueezeExcitation(
                      (avgpool): AdaptiveAvgPool2d(output_size=1)
                      (fc1): Conv2d(288, 72, kernel_size=(1, 1), stride=(1, 1))
                      (fc2): Conv2d(72, 288, kernel_size=(1, 1), stride=(1, 1))
                      (activation): ReLU()
                      (scale_activation): Hardsigmoid()
                    )
                    (3): Conv2dNormActivation(
                      (0): Conv2d(288, 96, kernel_size=(1, 1), stride=(1, 1), bias=False)
                      (1): BatchNorm2d(96, eps=0.001, momentum=0.01, affine=True, track_running_stats=True)
                    )
                  )
                )
                (10): Module(
                  (block): Module(
                    (0): Conv2dNormActivation(
                      (0): Conv2d(96, 576, kernel_size=(1, 1), stride=(1, 1), bias=False)
                      (1): BatchNorm2d(576, eps=0.001, momentum=0.01, affine=True, track_running_stats=True)
                      (2): Hardswish()
                    )
                    (1): Conv2dNormActivation(
                      (0): Conv2d(576, 576, kernel_size=(5, 5), stride=(1, 1), padding=(2, 2), groups=576, bias=False)
                      (1): BatchNorm2d(576, eps=0.001, momentum=0.01, affine=True, track_running_stats=True)
                      (2): Hardswish()
                    )
                    (2): SqueezeExcitation(
                      (avgpool): AdaptiveAvgPool2d(output_size=1)
                      (fc1): Conv2d(576, 144, kernel_size=(1, 1), stride=(1, 1))
                      (fc2): Conv2d(144, 576, kernel_size=(1, 1), stride=(1, 1))
                      (activation): ReLU()
                      (scale_activation): Hardsigmoid()
                    )
                    (3): Conv2dNormActivation(
                      (0): Conv2d(576, 96, kernel_size=(1, 1), stride=(1, 1), bias=False)
                      (1): BatchNorm2d(96, eps=0.001, momentum=0.01, affine=True, track_running_stats=True)
                    )
                  )
                )
                (11): Module(
                  (block): Module(
                    (0): Conv2dNormActivation(
                      (0): Conv2d(96, 576, kernel_size=(1, 1), stride=(1, 1), bias=False)
                      (1): BatchNorm2d(576, eps=0.001, momentum=0.01, affine=True, track_running_stats=True)
                      (2): Hardswish()
                    )
                    (1): Conv2dNormActivation(
                      (0): Conv2d(576, 576, kernel_size=(5, 5), stride=(1, 1), padding=(2, 2), groups=576, bias=False)
                      (1): BatchNorm2d(576, eps=0.001, momentum=0.01, affine=True, track_running_stats=True)
                      (2): Hardswish()
                    )
                    (2): SqueezeExcitation(
                      (avgpool): AdaptiveAvgPool2d(output_size=1)
                      (fc1): Conv2d(576, 144, kernel_size=(1, 1), stride=(1, 1))
                      (fc2): Conv2d(144, 576, kernel_size=(1, 1), stride=(1, 1))
                      (activation): ReLU()
                      (scale_activation): Hardsigmoid()
                    )
                    (3): Conv2dNormActivation(
                      (0): Conv2d(576, 96, kernel_size=(1, 1), stride=(1, 1), bias=False)
                      (1): BatchNorm2d(96, eps=0.001, momentum=0.01, affine=True, track_running_stats=True)
                    )
                  )
                )
                (12): Conv2dNormActivation(
                  (0): Conv2d(96, 576, kernel_size=(1, 1), stride=(1, 1), bias=False)
                  (1): BatchNorm2d(576, eps=0.001, momentum=0.01, affine=True, track_running_stats=True)
                  (2): Hardswish()
                )
              )
              (avgpool): AdaptiveAvgPool2d(output_size=1)
            )
            (preprocess): Normalize(mean=[0.485, 0.456, 0.406], std=[0.229, 0.224, 0.225])
          )
          (pi_features_extractor): Extractor(
            (body): MobileNetV3(
              (features): Module(
                (0): Conv2dNormActivation(
                  (0): Conv2d(3, 16, kernel_size=(3, 3), stride=(2, 2), padding=(1, 1), bias=False)
                  (1): BatchNorm2d(16, eps=0.001, momentum=0.01, affine=True, track_running_stats=True)
                  (2): Hardswish()
                )
                (1): Module(
                  (block): Module(
                    (0): Conv2dNormActivation(
                      (0): Conv2d(16, 16, kernel_size=(3, 3), stride=(2, 2), padding=(1, 1), groups=16, bias=False)
                      (1): BatchNorm2d(16, eps=0.001, momentum=0.01, affine=True, track_running_stats=True)
                      (2): ReLU(inplace=True)
                    )
                    (1): SqueezeExcitation(
                      (avgpool): AdaptiveAvgPool2d(output_size=1)
                      (fc1): Conv2d(16, 8, kernel_size=(1, 1), stride=(1, 1))
                      (fc2): Conv2d(8, 16, kernel_size=(1, 1), stride=(1, 1))
                      (activation): ReLU()
                      (scale_activation): Hardsigmoid()
                    )
                    (2): Conv2dNormActivation(
                      (0): Conv2d(16, 16, kernel_size=(1, 1), stride=(1, 1), bias=False)
                      (1): BatchNorm2d(16, eps=0.001, momentum=0.01, affine=True, track_running_stats=True)
                    )
                  )
                )
                (2): Module(
                  (block): Module(
                    (0): Conv2dNormActivation(
                      (0): Conv2d(16, 72, kernel_size=(1, 1), stride=(1, 1), bias=False)
                      (1): BatchNorm2d(72, eps=0.001, momentum=0.01, affine=True, track_running_stats=True)
                      (2): ReLU(inplace=True)
                    )
                    (1): Conv2dNormActivation(
                      (0): Conv2d(72, 72, kernel_size=(3, 3), stride=(2, 2), padding=(1, 1), groups=72, bias=False)
                      (1): BatchNorm2d(72, eps=0.001, momentum=0.01, affine=True, track_running_stats=True)
                      (2): ReLU(inplace=True)
                    )
                    (2): Conv2dNormActivation(
                      (0): Conv2d(72, 24, kernel_size=(1, 1), stride=(1, 1), bias=False)
                      (1): BatchNorm2d(24, eps=0.001, momentum=0.01, affine=True, track_running_stats=True)
                    )
                  )
                )
                (3): Module(
                  (block): Module(
                    (0): Conv2dNormActivation(
                      (0): Conv2d(24, 88, kernel_size=(1, 1), stride=(1, 1), bias=False)
                      (1): BatchNorm2d(88, eps=0.001, momentum=0.01, affine=True, track_running_stats=True)
                      (2): ReLU(inplace=True)
                    )
                    (1): Conv2dNormActivation(
                      (0): Conv2d(88, 88, kernel_size=(3, 3), stride=(1, 1), padding=(1, 1), groups=88, bias=False)
                      (1): BatchNorm2d(88, eps=0.001, momentum=0.01, affine=True, track_running_stats=True)
                      (2): ReLU(inplace=True)
                    )
                    (2): Conv2dNormActivation(
                      (0): Conv2d(88, 24, kernel_size=(1, 1), stride=(1, 1), bias=False)
                      (1): BatchNorm2d(24, eps=0.001, momentum=0.01, affine=True, track_running_stats=True)
                    )
                  )
                )
                (4): Module(
                  (block): Module(
                    (0): Conv2dNormActivation(
                      (0): Conv2d(24, 96, kernel_size=(1, 1), stride=(1, 1), bias=False)
                      (1): BatchNorm2d(96, eps=0.001, momentum=0.01, affine=True, track_running_stats=True)
                      (2): Hardswish()
                    )
                    (1): Conv2dNormActivation(
                      (0): Conv2d(96, 96, kernel_size=(5, 5), stride=(2, 2), padding=(2, 2), groups=96, bias=False)
                      (1): BatchNorm2d(96, eps=0.001, momentum=0.01, affine=True, track_running_stats=True)
                      (2): Hardswish()
                    )
                    (2): SqueezeExcitation(
                      (avgpool): AdaptiveAvgPool2d(output_size=1)
                      (fc1): Conv2d(96, 24, kernel_size=(1, 1), stride=(1, 1))
                      (fc2): Conv2d(24, 96, kernel_size=(1, 1), stride=(1, 1))
                      (activation): ReLU()
                      (scale_activation): Hardsigmoid()
                    )
                    (3): Conv2dNormActivation(
                      (0): Conv2d(96, 40, kernel_size=(1, 1), stride=(1, 1), bias=False)
                      (1): BatchNorm2d(40, eps=0.001, momentum=0.01, affine=True, track_running_stats=True)
                    )
                  )
                )
                (5): Module(
                  (block): Module(
                    (0): Conv2dNormActivation(
                      (0): Conv2d(40, 240, kernel_size=(1, 1), stride=(1, 1), bias=False)
                      (1): BatchNorm2d(240, eps=0.001, momentum=0.01, affine=True, track_running_stats=True)
                      (2): Hardswish()
                    )
                    (1): Conv2dNormActivation(
                      (0): Conv2d(240, 240, kernel_size=(5, 5), stride=(1, 1), padding=(2, 2), groups=240, bias=False)
                      (1): BatchNorm2d(240, eps=0.001, momentum=0.01, affine=True, track_running_stats=True)
                      (2): Hardswish()
                    )
                    (2): SqueezeExcitation(
                      (avgpool): AdaptiveAvgPool2d(output_size=1)
                      (fc1): Conv2d(240, 64, kernel_size=(1, 1), stride=(1, 1))
                      (fc2): Conv2d(64, 240, kernel_size=(1, 1), stride=(1, 1))
                      (activation): ReLU()
                      (scale_activation): Hardsigmoid()
                    )
                    (3): Conv2dNormActivation(
                      (0): Conv2d(240, 40, kernel_size=(1, 1), stride=(1, 1), bias=False)
                      (1): BatchNorm2d(40, eps=0.001, momentum=0.01, affine=True, track_running_stats=True)
                    )
                  )
                )
                (6): Module(
                  (block): Module(
                    (0): Conv2dNormActivation(
                      (0): Conv2d(40, 240, kernel_size=(1, 1), stride=(1, 1), bias=False)
                      (1): BatchNorm2d(240, eps=0.001, momentum=0.01, affine=True, track_running_stats=True)
                      (2): Hardswish()
                    )
                    (1): Conv2dNormActivation(
                      (0): Conv2d(240, 240, kernel_size=(5, 5), stride=(1, 1), padding=(2, 2), groups=240, bias=False)
                      (1): BatchNorm2d(240, eps=0.001, momentum=0.01, affine=True, track_running_stats=True)
                      (2): Hardswish()
                    )
                    (2): SqueezeExcitation(
                      (avgpool): AdaptiveAvgPool2d(output_size=1)
                      (fc1): Conv2d(240, 64, kernel_size=(1, 1), stride=(1, 1))
                      (fc2): Conv2d(64, 240, kernel_size=(1, 1), stride=(1, 1))
                      (activation): ReLU()
                      (scale_activation): Hardsigmoid()
                    )
                    (3): Conv2dNormActivation(
                      (0): Conv2d(240, 40, kernel_size=(1, 1), stride=(1, 1), bias=False)
                      (1): BatchNorm2d(40, eps=0.001, momentum=0.01, affine=True, track_running_stats=True)
                    )
                  )
                )
                (7): Module(
                  (block): Module(
                    (0): Conv2dNormActivation(
                      (0): Conv2d(40, 120, kernel_size=(1, 1), stride=(1, 1), bias=False)
                      (1): BatchNorm2d(120, eps=0.001, momentum=0.01, affine=True, track_running_stats=True)
                      (2): Hardswish()
                    )
                    (1): Conv2dNormActivation(
                      (0): Conv2d(120, 120, kernel_size=(5, 5), stride=(1, 1), padding=(2, 2), groups=120, bias=False)
                      (1): BatchNorm2d(120, eps=0.001, momentum=0.01, affine=True, track_running_stats=True)
                      (2): Hardswish()
                    )
                    (2): SqueezeExcitation(
                      (avgpool): AdaptiveAvgPool2d(output_size=1)
                      (fc1): Conv2d(120, 32, kernel_size=(1, 1), stride=(1, 1))
                      (fc2): Conv2d(32, 120, kernel_size=(1, 1), stride=(1, 1))
                      (activation): ReLU()
                      (scale_activation): Hardsigmoid()
                    )
                    (3): Conv2dNormActivation(
                      (0): Conv2d(120, 48, kernel_size=(1, 1), stride=(1, 1), bias=False)
                      (1): BatchNorm2d(48, eps=0.001, momentum=0.01, affine=True, track_running_stats=True)
                    )
                  )
                )
                (8): Module(
                  (block): Module(
                    (0): Conv2dNormActivation(
                      (0): Conv2d(48, 144, kernel_size=(1, 1), stride=(1, 1), bias=False)
                      (1): BatchNorm2d(144, eps=0.001, momentum=0.01, affine=True, track_running_stats=True)
                      (2): Hardswish()
                    )
                    (1): Conv2dNormActivation(
                      (0): Conv2d(144, 144, kernel_size=(5, 5), stride=(1, 1), padding=(2, 2), groups=144, bias=False)
                      (1): BatchNorm2d(144, eps=0.001, momentum=0.01, affine=True, track_running_stats=True)
                      (2): Hardswish()
                    )
                    (2): SqueezeExcitation(
                      (avgpool): AdaptiveAvgPool2d(output_size=1)
                      (fc1): Conv2d(144, 40, kernel_size=(1, 1), stride=(1, 1))
                      (fc2): Conv2d(40, 144, kernel_size=(1, 1), stride=(1, 1))
                      (activation): ReLU()
                      (scale_activation): Hardsigmoid()
                    )
                    (3): Conv2dNormActivation(
                      (0): Conv2d(144, 48, kernel_size=(1, 1), stride=(1, 1), bias=False)
                      (1): BatchNorm2d(48, eps=0.001, momentum=0.01, affine=True, track_running_stats=True)
                    )
                  )
                )
                (9): Module(
                  (block): Module(
                    (0): Conv2dNormActivation(
                      (0): Conv2d(48, 288, kernel_size=(1, 1), stride=(1, 1), bias=False)
                      (1): BatchNorm2d(288, eps=0.001, momentum=0.01, affine=True, track_running_stats=True)
                      (2): Hardswish()
                    )
                    (1): Conv2dNormActivation(
                      (0): Conv2d(288, 288, kernel_size=(5, 5), stride=(2, 2), padding=(2, 2), groups=288, bias=False)
                      (1): BatchNorm2d(288, eps=0.001, momentum=0.01, affine=True, track_running_stats=True)
                      (2): Hardswish()
                    )
                    (2): SqueezeExcitation(
                      (avgpool): AdaptiveAvgPool2d(output_size=1)
                      (fc1): Conv2d(288, 72, kernel_size=(1, 1), stride=(1, 1))
                      (fc2): Conv2d(72, 288, kernel_size=(1, 1), stride=(1, 1))
                      (activation): ReLU()
                      (scale_activation): Hardsigmoid()
                    )
                    (3): Conv2dNormActivation(
                      (0): Conv2d(288, 96, kernel_size=(1, 1), stride=(1, 1), bias=False)
                      (1): BatchNorm2d(96, eps=0.001, momentum=0.01, affine=True, track_running_stats=True)
                    )
                  )
                )
                (10): Module(
                  (block): Module(
                    (0): Conv2dNormActivation(
                      (0): Conv2d(96, 576, kernel_size=(1, 1), stride=(1, 1), bias=False)
                      (1): BatchNorm2d(576, eps=0.001, momentum=0.01, affine=True, track_running_stats=True)
                      (2): Hardswish()
                    )
                    (1): Conv2dNormActivation(
                      (0): Conv2d(576, 576, kernel_size=(5, 5), stride=(1, 1), padding=(2, 2), groups=576, bias=False)
                      (1): BatchNorm2d(576, eps=0.001, momentum=0.01, affine=True, track_running_stats=True)
                      (2): Hardswish()
                    )
                    (2): SqueezeExcitation(
                      (avgpool): AdaptiveAvgPool2d(output_size=1)
                      (fc1): Conv2d(576, 144, kernel_size=(1, 1), stride=(1, 1))
                      (fc2): Conv2d(144, 576, kernel_size=(1, 1), stride=(1, 1))
                      (activation): ReLU()
                      (scale_activation): Hardsigmoid()
                    )
                    (3): Conv2dNormActivation(
                      (0): Conv2d(576, 96, kernel_size=(1, 1), stride=(1, 1), bias=False)
                      (1): BatchNorm2d(96, eps=0.001, momentum=0.01, affine=True, track_running_stats=True)
                    )
                  )
                )
                (11): Module(
                  (block): Module(
                    (0): Conv2dNormActivation(
                      (0): Conv2d(96, 576, kernel_size=(1, 1), stride=(1, 1), bias=False)
                      (1): BatchNorm2d(576, eps=0.001, momentum=0.01, affine=True, track_running_stats=True)
                      (2): Hardswish()
                    )
                    (1): Conv2dNormActivation(
                      (0): Conv2d(576, 576, kernel_size=(5, 5), stride=(1, 1), padding=(2, 2), groups=576, bias=False)
                      (1): BatchNorm2d(576, eps=0.001, momentum=0.01, affine=True, track_running_stats=True)
                      (2): Hardswish()
                    )
                    (2): SqueezeExcitation(
                      (avgpool): AdaptiveAvgPool2d(output_size=1)
                      (fc1): Conv2d(576, 144, kernel_size=(1, 1), stride=(1, 1))
                      (fc2): Conv2d(144, 576, kernel_size=(1, 1), stride=(1, 1))
                      (activation): ReLU()
                      (scale_activation): Hardsigmoid()
                    )
                    (3): Conv2dNormActivation(
                      (0): Conv2d(576, 96, kernel_size=(1, 1), stride=(1, 1), bias=False)
                      (1): BatchNorm2d(96, eps=0.001, momentum=0.01, affine=True, track_running_stats=True)
                    )
                  )
                )
                (12): Conv2dNormActivation(
                  (0): Conv2d(96, 576, kernel_size=(1, 1), stride=(1, 1), bias=False)
                  (1): BatchNorm2d(576, eps=0.001, momentum=0.01, affine=True, track_running_stats=True)
                  (2): Hardswish()
                )
              )
              (avgpool): AdaptiveAvgPool2d(output_size=1)
            )
            (preprocess): Normalize(mean=[0.485, 0.456, 0.406], std=[0.229, 0.224, 0.225])
          )
          (vf_features_extractor): Extractor(
            (body): MobileNetV3(
              (features): Module(
                (0): Conv2dNormActivation(
                  (0): Conv2d(3, 16, kernel_size=(3, 3), stride=(2, 2), padding=(1, 1), bias=False)
                  (1): BatchNorm2d(16, eps=0.001, momentum=0.01, affine=True, track_running_stats=True)
                  (2): Hardswish()
                )
                (1): Module(
                  (block): Module(
                    (0): Conv2dNormActivation(
                      (0): Conv2d(16, 16, kernel_size=(3, 3), stride=(2, 2), padding=(1, 1), groups=16, bias=False)
                      (1): BatchNorm2d(16, eps=0.001, momentum=0.01, affine=True, track_running_stats=True)
                      (2): ReLU(inplace=True)
                    )
                    (1): SqueezeExcitation(
                      (avgpool): AdaptiveAvgPool2d(output_size=1)
                      (fc1): Conv2d(16, 8, kernel_size=(1, 1), stride=(1, 1))
                      (fc2): Conv2d(8, 16, kernel_size=(1, 1), stride=(1, 1))
                      (activation): ReLU()
                      (scale_activation): Hardsigmoid()
                    )
                    (2): Conv2dNormActivation(
                      (0): Conv2d(16, 16, kernel_size=(1, 1), stride=(1, 1), bias=False)
                      (1): BatchNorm2d(16, eps=0.001, momentum=0.01, affine=True, track_running_stats=True)
                    )
                  )
                )
                (2): Module(
                  (block): Module(
                    (0): Conv2dNormActivation(
                      (0): Conv2d(16, 72, kernel_size=(1, 1), stride=(1, 1), bias=False)
                      (1): BatchNorm2d(72, eps=0.001, momentum=0.01, affine=True, track_running_stats=True)
                      (2): ReLU(inplace=True)
                    )
                    (1): Conv2dNormActivation(
                      (0): Conv2d(72, 72, kernel_size=(3, 3), stride=(2, 2), padding=(1, 1), groups=72, bias=False)
                      (1): BatchNorm2d(72, eps=0.001, momentum=0.01, affine=True, track_running_stats=True)
                      (2): ReLU(inplace=True)
                    )
                    (2): Conv2dNormActivation(
                      (0): Conv2d(72, 24, kernel_size=(1, 1), stride=(1, 1), bias=False)
                      (1): BatchNorm2d(24, eps=0.001, momentum=0.01, affine=True, track_running_stats=True)
                    )
                  )
                )
                (3): Module(
                  (block): Module(
                    (0): Conv2dNormActivation(
                      (0): Conv2d(24, 88, kernel_size=(1, 1), stride=(1, 1), bias=False)
                      (1): BatchNorm2d(88, eps=0.001, momentum=0.01, affine=True, track_running_stats=True)
                      (2): ReLU(inplace=True)
                    )
                    (1): Conv2dNormActivation(
                      (0): Conv2d(88, 88, kernel_size=(3, 3), stride=(1, 1), padding=(1, 1), groups=88, bias=False)
                      (1): BatchNorm2d(88, eps=0.001, momentum=0.01, affine=True, track_running_stats=True)
                      (2): ReLU(inplace=True)
                    )
                    (2): Conv2dNormActivation(
                      (0): Conv2d(88, 24, kernel_size=(1, 1), stride=(1, 1), bias=False)
                      (1): BatchNorm2d(24, eps=0.001, momentum=0.01, affine=True, track_running_stats=True)
                    )
                  )
                )
                (4): Module(
                  (block): Module(
                    (0): Conv2dNormActivation(
                      (0): Conv2d(24, 96, kernel_size=(1, 1), stride=(1, 1), bias=False)
                      (1): BatchNorm2d(96, eps=0.001, momentum=0.01, affine=True, track_running_stats=True)
                      (2): Hardswish()
                    )
                    (1): Conv2dNormActivation(
                      (0): Conv2d(96, 96, kernel_size=(5, 5), stride=(2, 2), padding=(2, 2), groups=96, bias=False)
                      (1): BatchNorm2d(96, eps=0.001, momentum=0.01, affine=True, track_running_stats=True)
                      (2): Hardswish()
                    )
                    (2): SqueezeExcitation(
                      (avgpool): AdaptiveAvgPool2d(output_size=1)
                      (fc1): Conv2d(96, 24, kernel_size=(1, 1), stride=(1, 1))
                      (fc2): Conv2d(24, 96, kernel_size=(1, 1), stride=(1, 1))
                      (activation): ReLU()
                      (scale_activation): Hardsigmoid()
                    )
                    (3): Conv2dNormActivation(
                      (0): Conv2d(96, 40, kernel_size=(1, 1), stride=(1, 1), bias=False)
                      (1): BatchNorm2d(40, eps=0.001, momentum=0.01, affine=True, track_running_stats=True)
                    )
                  )
                )
                (5): Module(
                  (block): Module(
                    (0): Conv2dNormActivation(
                      (0): Conv2d(40, 240, kernel_size=(1, 1), stride=(1, 1), bias=False)
                      (1): BatchNorm2d(240, eps=0.001, momentum=0.01, affine=True, track_running_stats=True)
                      (2): Hardswish()
                    )
                    (1): Conv2dNormActivation(
                      (0): Conv2d(240, 240, kernel_size=(5, 5), stride=(1, 1), padding=(2, 2), groups=240, bias=False)
                      (1): BatchNorm2d(240, eps=0.001, momentum=0.01, affine=True, track_running_stats=True)
                      (2): Hardswish()
                    )
                    (2): SqueezeExcitation(
                      (avgpool): AdaptiveAvgPool2d(output_size=1)
                      (fc1): Conv2d(240, 64, kernel_size=(1, 1), stride=(1, 1))
                      (fc2): Conv2d(64, 240, kernel_size=(1, 1), stride=(1, 1))
                      (activation): ReLU()
                      (scale_activation): Hardsigmoid()
                    )
                    (3): Conv2dNormActivation(
                      (0): Conv2d(240, 40, kernel_size=(1, 1), stride=(1, 1), bias=False)
                      (1): BatchNorm2d(40, eps=0.001, momentum=0.01, affine=True, track_running_stats=True)
                    )
                  )
                )
                (6): Module(
                  (block): Module(
                    (0): Conv2dNormActivation(
                      (0): Conv2d(40, 240, kernel_size=(1, 1), stride=(1, 1), bias=False)
                      (1): BatchNorm2d(240, eps=0.001, momentum=0.01, affine=True, track_running_stats=True)
                      (2): Hardswish()
                    )
                    (1): Conv2dNormActivation(
                      (0): Conv2d(240, 240, kernel_size=(5, 5), stride=(1, 1), padding=(2, 2), groups=240, bias=False)
                      (1): BatchNorm2d(240, eps=0.001, momentum=0.01, affine=True, track_running_stats=True)
                      (2): Hardswish()
                    )
                    (2): SqueezeExcitation(
                      (avgpool): AdaptiveAvgPool2d(output_size=1)
                      (fc1): Conv2d(240, 64, kernel_size=(1, 1), stride=(1, 1))
                      (fc2): Conv2d(64, 240, kernel_size=(1, 1), stride=(1, 1))
                      (activation): ReLU()
                      (scale_activation): Hardsigmoid()
                    )
                    (3): Conv2dNormActivation(
                      (0): Conv2d(240, 40, kernel_size=(1, 1), stride=(1, 1), bias=False)
                      (1): BatchNorm2d(40, eps=0.001, momentum=0.01, affine=True, track_running_stats=True)
                    )
                  )
                )
                (7): Module(
                  (block): Module(
                    (0): Conv2dNormActivation(
                      (0): Conv2d(40, 120, kernel_size=(1, 1), stride=(1, 1), bias=False)
                      (1): BatchNorm2d(120, eps=0.001, momentum=0.01, affine=True, track_running_stats=True)
                      (2): Hardswish()
                    )
                    (1): Conv2dNormActivation(
                      (0): Conv2d(120, 120, kernel_size=(5, 5), stride=(1, 1), padding=(2, 2), groups=120, bias=False)
                      (1): BatchNorm2d(120, eps=0.001, momentum=0.01, affine=True, track_running_stats=True)
                      (2): Hardswish()
                    )
                    (2): SqueezeExcitation(
                      (avgpool): AdaptiveAvgPool2d(output_size=1)
                      (fc1): Conv2d(120, 32, kernel_size=(1, 1), stride=(1, 1))
                      (fc2): Conv2d(32, 120, kernel_size=(1, 1), stride=(1, 1))
                      (activation): ReLU()
                      (scale_activation): Hardsigmoid()
                    )
                    (3): Conv2dNormActivation(
                      (0): Conv2d(120, 48, kernel_size=(1, 1), stride=(1, 1), bias=False)
                      (1): BatchNorm2d(48, eps=0.001, momentum=0.01, affine=True, track_running_stats=True)
                    )
                  )
                )
                (8): Module(
                  (block): Module(
                    (0): Conv2dNormActivation(
                      (0): Conv2d(48, 144, kernel_size=(1, 1), stride=(1, 1), bias=False)
                      (1): BatchNorm2d(144, eps=0.001, momentum=0.01, affine=True, track_running_stats=True)
                      (2): Hardswish()
                    )
                    (1): Conv2dNormActivation(
                      (0): Conv2d(144, 144, kernel_size=(5, 5), stride=(1, 1), padding=(2, 2), groups=144, bias=False)
                      (1): BatchNorm2d(144, eps=0.001, momentum=0.01, affine=True, track_running_stats=True)
                      (2): Hardswish()
                    )
                    (2): SqueezeExcitation(
                      (avgpool): AdaptiveAvgPool2d(output_size=1)
                      (fc1): Conv2d(144, 40, kernel_size=(1, 1), stride=(1, 1))
                      (fc2): Conv2d(40, 144, kernel_size=(1, 1), stride=(1, 1))
                      (activation): ReLU()
                      (scale_activation): Hardsigmoid()
                    )
                    (3): Conv2dNormActivation(
                      (0): Conv2d(144, 48, kernel_size=(1, 1), stride=(1, 1), bias=False)
                      (1): BatchNorm2d(48, eps=0.001, momentum=0.01, affine=True, track_running_stats=True)
                    )
                  )
                )
                (9): Module(
                  (block): Module(
                    (0): Conv2dNormActivation(
                      (0): Conv2d(48, 288, kernel_size=(1, 1), stride=(1, 1), bias=False)
                      (1): BatchNorm2d(288, eps=0.001, momentum=0.01, affine=True, track_running_stats=True)
                      (2): Hardswish()
                    )
                    (1): Conv2dNormActivation(
                      (0): Conv2d(288, 288, kernel_size=(5, 5), stride=(2, 2), padding=(2, 2), groups=288, bias=False)
                      (1): BatchNorm2d(288, eps=0.001, momentum=0.01, affine=True, track_running_stats=True)
                      (2): Hardswish()
                    )
                    (2): SqueezeExcitation(
                      (avgpool): AdaptiveAvgPool2d(output_size=1)
                      (fc1): Conv2d(288, 72, kernel_size=(1, 1), stride=(1, 1))
                      (fc2): Conv2d(72, 288, kernel_size=(1, 1), stride=(1, 1))
                      (activation): ReLU()
                      (scale_activation): Hardsigmoid()
                    )
                    (3): Conv2dNormActivation(
                      (0): Conv2d(288, 96, kernel_size=(1, 1), stride=(1, 1), bias=False)
                      (1): BatchNorm2d(96, eps=0.001, momentum=0.01, affine=True, track_running_stats=True)
                    )
                  )
                )
                (10): Module(
                  (block): Module(
                    (0): Conv2dNormActivation(
                      (0): Conv2d(96, 576, kernel_size=(1, 1), stride=(1, 1), bias=False)
                      (1): BatchNorm2d(576, eps=0.001, momentum=0.01, affine=True, track_running_stats=True)
                      (2): Hardswish()
                    )
                    (1): Conv2dNormActivation(
                      (0): Conv2d(576, 576, kernel_size=(5, 5), stride=(1, 1), padding=(2, 2), groups=576, bias=False)
                      (1): BatchNorm2d(576, eps=0.001, momentum=0.01, affine=True, track_running_stats=True)
                      (2): Hardswish()
                    )
                    (2): SqueezeExcitation(
                      (avgpool): AdaptiveAvgPool2d(output_size=1)
                      (fc1): Conv2d(576, 144, kernel_size=(1, 1), stride=(1, 1))
                      (fc2): Conv2d(144, 576, kernel_size=(1, 1), stride=(1, 1))
                      (activation): ReLU()
                      (scale_activation): Hardsigmoid()
                    )
                    (3): Conv2dNormActivation(
                      (0): Conv2d(576, 96, kernel_size=(1, 1), stride=(1, 1), bias=False)
                      (1): BatchNorm2d(96, eps=0.001, momentum=0.01, affine=True, track_running_stats=True)
                    )
                  )
                )
                (11): Module(
                  (block): Module(
                    (0): Conv2dNormActivation(
                      (0): Conv2d(96, 576, kernel_size=(1, 1), stride=(1, 1), bias=False)
                      (1): BatchNorm2d(576, eps=0.001, momentum=0.01, affine=True, track_running_stats=True)
                      (2): Hardswish()
                    )
                    (1): Conv2dNormActivation(
                      (0): Conv2d(576, 576, kernel_size=(5, 5), stride=(1, 1), padding=(2, 2), groups=576, bias=False)
                      (1): BatchNorm2d(576, eps=0.001, momentum=0.01, affine=True, track_running_stats=True)
                      (2): Hardswish()
                    )
                    (2): SqueezeExcitation(
                      (avgpool): AdaptiveAvgPool2d(output_size=1)
                      (fc1): Conv2d(576, 144, kernel_size=(1, 1), stride=(1, 1))
                      (fc2): Conv2d(144, 576, kernel_size=(1, 1), stride=(1, 1))
                      (activation): ReLU()
                      (scale_activation): Hardsigmoid()
                    )
                    (3): Conv2dNormActivation(
                      (0): Conv2d(576, 96, kernel_size=(1, 1), stride=(1, 1), bias=False)
                      (1): BatchNorm2d(96, eps=0.001, momentum=0.01, affine=True, track_running_stats=True)
                    )
                  )
                )
                (12): Conv2dNormActivation(
                  (0): Conv2d(96, 576, kernel_size=(1, 1), stride=(1, 1), bias=False)
                  (1): BatchNorm2d(576, eps=0.001, momentum=0.01, affine=True, track_running_stats=True)
                  (2): Hardswish()
                )
              )
              (avgpool): AdaptiveAvgPool2d(output_size=1)
            )
            (preprocess): Normalize(mean=[0.485, 0.456, 0.406], std=[0.229, 0.224, 0.225])
          )
          (mlp_extractor): MlpExtractor(
            (policy_net): Sequential(
              (0): Linear(in_features=576, out_features=256, bias=True)
              (1): Tanh()
              (2): Linear(in_features=256, out_features=256, bias=True)
              (3): Tanh()
              (4): Linear(in_features=256, out_features=256, bias=True)
              (5): Tanh()
            )
            (value_net): Sequential(
              (0): Linear(in_features=576, out_features=512, bias=True)
              (1): Tanh()
              (2): Linear(in_features=512, out_features=512, bias=True)
              (3): Tanh()
              (4): Linear(in_features=512, out_features=512, bias=True)
              (5): Tanh()
            )
          )
          (action_net): Linear(in_features=256, out_features=2, bias=True)
          (value_net): Linear(in_features=512, out_features=1, bias=True)
        )
policy_class:
    value: <class 'stable_baselines3.common.policies.ActorCriticCnnPolicy'>
policy_kwargs:
    value: '{''optimizer_class'': <class ''torch.optim.adam.Adam''>, ''features_extractor_class'': <class ''utils.feature_extractor.Extractor''>, ''features_extractor_kwargs'': {''pretrained'': True, ''freeze_backbone'': True}, ''net_arch'': {''pi'': [256, 256, 256], ''vf'': [512, 512, 512]}}'
…
