…
    value: 1
n_steps:
    value: 256
neg_reward_size:
    value: 1.5
net_arch:
    value:
        pi:
            - 256
            - 256
            - 256
        vf:
            - 256
            - 256
            - 256
normalize_advantage:
    value: "True"
normalize_images:
    value: true
num_envs:
    value: 6
num_timesteps:
    value: 0
observation_space:
    value: Box(0, 255, (3, 225, 400), uint8)
policy:
    value: |-
        RecurrentActorCriticCnnPolicy(
          (features_extractor): VanillaGAPExtractor(
            (backbone): Sequential(
              (0): Sequential(
                (0): Conv2d(3, 32, kernel_size=(5, 5), stride=(2, 2), padding=(2, 2))
                (1): GroupNorm(32, 32, eps=1e-05, affine=True)
                (2): SiLU()
              )
              (1): Sequential(
                (0): Conv2d(32, 64, kernel_size=(3, 3), stride=(2, 2), padding=(1, 1))
                (1): GroupNorm(32, 64, eps=1e-05, affine=True)
                (2): SiLU()
              )
              (2): Sequential(
                (0): Conv2d(64, 128, kernel_size=(3, 3), stride=(2, 2), padding=(1, 1))
                (1): GroupNorm(32, 128, eps=1e-05, affine=True)
                (2): SiLU()
              )
              (3): Sequential(
                (0): Conv2d(128, 256, kernel_size=(3, 3), stride=(2, 2), padding=(1, 1))
                (1): GroupNorm(32, 256, eps=1e-05, affine=True)
                (2): SiLU()
              )
            )
            (gap): AdaptiveAvgPool2d(output_size=(1, 1))
          )
          (pi_features_extractor): VanillaGAPExtractor(
            (backbone): Sequential(
              (0): Sequential(
                (0): Conv2d(3, 32, kernel_size=(5, 5), stride=(2, 2), padding=(2, 2))
                (1): GroupNorm(32, 32, eps=1e-05, affine=True)
                (2): SiLU()
              )
              (1): Sequential(
                (0): Conv2d(32, 64, kernel_size=(3, 3), stride=(2, 2), padding=(1, 1))
                (1): GroupNorm(32, 64, eps=1e-05, affine=True)
                (2): SiLU()
              )
              (2): Sequential(
                (0): Conv2d(64, 128, kernel_size=(3, 3), stride=(2, 2), padding=(1, 1))
                (1): GroupNorm(32, 128, eps=1e-05, affine=True)
                (2): SiLU()
              )
              (3): Sequential(
                (0): Conv2d(128, 256, kernel_size=(3, 3), stride=(2, 2), padding=(1, 1))
                (1): GroupNorm(32, 256, eps=1e-05, affine=True)
                (2): SiLU()
              )
            )
            (gap): AdaptiveAvgPool2d(output_size=(1, 1))
          )
          (vf_features_extractor): VanillaGAPExtractor(
            (backbone): Sequential(
              (0): Sequential(
                (0): Conv2d(3, 32, kernel_size=(5, 5), stride=(2, 2), padding=(2, 2))
                (1): GroupNorm(32, 32, eps=1e-05, affine=True)
                (2): SiLU()
              )
              (1): Sequential(
                (0): Conv2d(32, 64, kernel_size=(3, 3), stride=(2, 2), padding=(1, 1))
                (1): GroupNorm(32, 64, eps=1e-05, affine=True)
                (2): SiLU()
              )
              (2): Sequential(
                (0): Conv2d(64, 128, kernel_size=(3, 3), stride=(2, 2), padding=(1, 1))
                (1): GroupNorm(32, 128, eps=1e-05, affine=True)
                (2): SiLU()
              )
              (3): Sequential(
                (0): Conv2d(128, 256, kernel_size=(3, 3), stride=(2, 2), padding=(1, 1))
                (1): GroupNorm(32, 256, eps=1e-05, affine=True)
                (2): SiLU()
              )
            )
            (gap): AdaptiveAvgPool2d(output_size=(1, 1))
          )
          (mlp_extractor): MlpExtractor(
            (policy_net): Sequential(
              (0): Linear(in_features=256, out_features=256, bias=True)
              (1): ReLU()
              (2): Linear(in_features=256, out_features=256, bias=True)
              (3): ReLU()
              (4): Linear(in_features=256, out_features=256, bias=True)
              (5): ReLU()
            )
            (value_net): Sequential(
              (0): Linear(in_features=256, out_features=256, bias=True)
              (1): ReLU()
              (2): Linear(in_features=256, out_features=256, bias=True)
              (3): ReLU()
              (4): Linear(in_features=256, out_features=256, bias=True)
              (5): ReLU()
            )
          )
          (action_net): Linear(in_features=256, out_features=2, bias=True)
          (value_net): Linear(in_features=256, out_features=1, bias=True)
          (lstm_actor): LSTM(256, 256)
          (lstm_critic): LSTM(256, 256)
        )
policy_class:
    value: <class 'sb3_contrib.common.recurrent.policies.RecurrentActorCriticCnnPolicy'>
policy_kwargs:
    value: '{''optimizer_class'': <class ''torch.optim.adam.Adam''>, ''features_extractor_class'': <class ''utils.gap_extractor.VanillaGAPExtractor''>, ''net_arch'': {''pi'': [256, 256, 256], ''vf'': [256, 256, 256]}, ''activation_fn'': <class ''torch.nn.modules.activation.ReLU''>, ''lstm_hidden_size'': 256, ''n_lstm_layers'': 1, ''shared_lstm'': False, ''enable_critic_lstm'': True, ''normalize_images'': True}'
…
