…
n_epochs:
    value: 3
n_lstm_layers:
    value: 1
n_steps:
    value: 256
neg_reward_size:
    value: 1.5
net_arch:
    value:
        pi:
            - 384
            - 256
        vf:
            - 384
            - 256
normalize_advantage:
    value: "True"
normalize_images:
    value: true
num_envs:
    value: 8
num_timesteps:
    value: 0
observation_space:
    value: Box(0, 255, (3, 225, 400), uint8)
policy:
    value: |-
        RecurrentActorCriticCnnPolicy(
          (features_extractor): VanillaExtractor(
            (backbone): Sequential(
              (0): Sequential(
                (0): Conv2d(3, 32, kernel_size=(5, 5), stride=(2, 2), padding=(2, 2))
                (1): GroupNorm(32, 32, eps=1e-05, affine=True)
                (2): SiLU()
              )
              (1): Sequential(
                (0): Conv2d(32, 64, kernel_size=(3, 3), stride=(2, 2), padding=(1, 1))
                (1): GroupNorm(32, 64, eps=1e-05, affine=True)
                (2): SiLU()
              )
              (2): Sequential(
                (0): Conv2d(64, 128, kernel_size=(3, 3), stride=(2, 2), padding=(1, 1))
                (1): GroupNorm(32, 128, eps=1e-05, affine=True)
                (2): SiLU()
              )
              (3): Sequential(
                (0): Conv2d(128, 256, kernel_size=(3, 3), stride=(2, 2), padding=(1, 1))
                (1): GroupNorm(32, 256, eps=1e-05, affine=True)
                (2): SiLU()
              )
            )
            (flatten): Flatten(start_dim=1, end_dim=-1)
            (mlp): Sequential(
              (0): Linear(in_features=96000, out_features=800, bias=True)
              (1): SiLU()
              (2): Linear(in_features=800, out_features=800, bias=True)
              (3): SiLU()
              (4): Linear(in_features=800, out_features=400, bias=True)
            )
          )
          (pi_features_extractor): VanillaExtractor(
            (backbone): Sequential(
              (0): Sequential(
                (0): Conv2d(3, 32, kernel_size=(5, 5), stride=(2, 2), padding=(2, 2))
                (1): GroupNorm(32, 32, eps=1e-05, affine=True)
                (2): SiLU()
              )
              (1): Sequential(
                (0): Conv2d(32, 64, kernel_size=(3, 3), stride=(2, 2), padding=(1, 1))
                (1): GroupNorm(32, 64, eps=1e-05, affine=True)
                (2): SiLU()
              )
              (2): Sequential(
                (0): Conv2d(64, 128, kernel_size=(3, 3), stride=(2, 2), padding=(1, 1))
                (1): GroupNorm(32, 128, eps=1e-05, affine=True)
                (2): SiLU()
              )
              (3): Sequential(
                (0): Conv2d(128, 256, kernel_size=(3, 3), stride=(2, 2), padding=(1, 1))
                (1): GroupNorm(32, 256, eps=1e-05, affine=True)
                (2): SiLU()
              )
            )
            (flatten): Flatten(start_dim=1, end_dim=-1)
            (mlp): Sequential(
              (0): Linear(in_features=96000, out_features=800, bias=True)
              (1): SiLU()
              (2): Linear(in_features=800, out_features=800, bias=True)
              (3): SiLU()
              (4): Linear(in_features=800, out_features=400, bias=True)
            )
          )
          (vf_features_extractor): VanillaExtractor(
            (backbone): Sequential(
              (0): Sequential(
                (0): Conv2d(3, 32, kernel_size=(5, 5), stride=(2, 2), padding=(2, 2))
                (1): GroupNorm(32, 32, eps=1e-05, affine=True)
                (2): SiLU()
              )
              (1): Sequential(
                (0): Conv2d(32, 64, kernel_size=(3, 3), stride=(2, 2), padding=(1, 1))
                (1): GroupNorm(32, 64, eps=1e-05, affine=True)
                (2): SiLU()
              )
              (2): Sequential(
                (0): Conv2d(64, 128, kernel_size=(3, 3), stride=(2, 2), padding=(1, 1))
                (1): GroupNorm(32, 128, eps=1e-05, affine=True)
                (2): SiLU()
              )
              (3): Sequential(
                (0): Conv2d(128, 256, kernel_size=(3, 3), stride=(2, 2), padding=(1, 1))
                (1): GroupNorm(32, 256, eps=1e-05, affine=True)
                (2): SiLU()
              )
            )
            (flatten): Flatten(start_dim=1, end_dim=-1)
            (mlp): Sequential(
              (0): Linear(in_features=96000, out_features=800, bias=True)
              (1): SiLU()
              (2): Linear(in_features=800, out_features=800, bias=True)
              (3): SiLU()
              (4): Linear(in_features=800, out_features=400, bias=True)
            )
          )
          (mlp_extractor): MlpExtractor(
            (policy_net): Sequential(
              (0): Linear(in_features=100, out_features=384, bias=True)
              (1): SiLU()
              (2): Linear(in_features=384, out_features=256, bias=True)
              (3): SiLU()
            )
            (value_net): Sequential(
              (0): Linear(in_features=100, out_features=384, bias=True)
              (1): SiLU()
              (2): Linear(in_features=384, out_features=256, bias=True)
              (3): SiLU()
            )
          )
          (action_net): Linear(in_features=256, out_features=2, bias=True)
          (value_net): Linear(in_features=256, out_features=1, bias=True)
          (lstm_actor): LSTM(400, 100)
          (lstm_critic): LSTM(400, 100)
        )
policy_class:
    value: <class 'sb3_contrib.common.recurrent.policies.RecurrentActorCriticCnnPolicy'>
policy_kwargs:
    value: '{''optimizer_class'': <class ''torch.optim.adam.Adam''>, ''features_extractor_class'': <class ''rl_task.task.extractors.custom_extractors
…
